best_model.pth (torch, 37602 bytes, 14 tensors)

linear_relu_stack.0.weight f4 [64, 16]
00000000: b599 4c3e 6335 973e 7407 143b 959d debe
00000010: 173d a23e 71ce 3cbe 3422 723e 5416 2d3e
00000020: 056f 5e3e 9943 aa3d b239 063e ae6d 2d3e
00000030: d78f 5bbe 1875 073e 2e2b 103e 1921 75b9
00000040: 1679 f9bd bb8f 5fbe 1892 00be 77e5 c9bc
00000050: b36b 6e3d 330c d33e 00c3 5e3e 216c d83d
00000060: 3f82 ab3d e374 983e 5013 5a3e f0dc a7bd
00000070: 56df 223e 877c 5b3e b76c 0abe a18d 51be
00000080: 98d3 55be 8e3c 593e 4a6f 0c3d 027a 2a3e
00000090: f1f8 4f3d c85e ad3d 0a48 a53d 1459 5d3d
000000a0: 6715 ca3d 163a bbbe 72c4 27be 430d 883e
000000b0: 5bf2 f6bc 7332 8c3d 01e4 0b3d b9de 92be
000000c0: 78c8 8b3e dbf3 dcbd ce52 1d3d 45e5 bcbb
000000d0: 7254 553d 4fdb 073d 87f5 293e 4257 e7bd
000000e0: c6ab 23bf a263 a73e 3ea7 22bc 8444 af3d
000000f0: 7b8c ec3d 9540 2dbe 8711 253e dfab 3dbe
00000100: 87ab 193d 946d b23d 365c 2c3e 33d8 40be
00000110: fd65 aabd c890 c0bc 7e75 023c b48a 4a3d
00000120: b0a0 32bf badd a1be 912c 99bd 19b6 0f3d
00000130: 4689 9ebd 1011 2c3d c28b f13c d7b9 c73d
00000140: 7b41 20be 3f35 383c e1a0 3dbe 7204 d73c
00000150: 3075 b13d 40d5 39bd a136 2d3d 09a6 4a3d
00000160: 64ec 2abf 0ad9 81be 534b 893e a46d 93bd
00000170: d142 743d c038 69bd 340e a6bd 7e67 123c
00000180: a9b4 80bb 9c8c 91be a227 19be 931d 1abd
00000190: 3009 843e 5212 a3bd c485 e13d 2b88 f03d
000001a0: 71ad 0fbf bc42 9c3e 0bbb 3a3e 43ba ff3d
000001b0: b561 8d3d 1143 633e 686b 2fb9 e65d 7dbe
000001c0: 8b62 133d 3447 51bd 7e6b aa3e 73f8 ba3e
000001d0: 0320 cb3d 0330 053e e383 20bf 7a6b b73c
000001e0: cd95 1c3e 949b 57bd f852 2a3d ae8d a63d
000001f0: c920 07bf b9d4 c7bc 8fa0 a3bc bd47 d73e
00000200: f834 41be b73b 6ebe cca9 383d 819f db3d
00000210: 8b9b 053e 328c b2bb 2676 af3c cd16 edbe
00000220: e63c ce3e e5ae 9c3c e15d 98bd 9596 fdbe
00000230: d7b4 a33e 21e6 8f3d 81cf 713d 4fe4 d4bc
00000240: 7bfa c2be 1e91 c33d 03d9 0f3e 3d04 573e
00000250: 415c db3d 1832 cb3d 4d68 823d fb10 1e3e
00000260: 169d 4b3d a57d 413e 3caf 8ebd b3be 923e
00000270: b964 413e e250 e13e ece1 be3d 1b7b 943d
00000280: e647 abbc c60c 1c3d 4766 a8bc 838a 80be
00000290: b73b f1bc b562 2a3e 7971 26be a2f6 19be
000002a0: fbfc db3d b311 f1bd 3a33 793c 6ef4 f1bd
000002b0: 14a0 42be 2378 54be c843 363e 98f4 dd3c
000002c0: b293 a8bc d33c be3d 4d5c b3be 5440 6abe
000002d0: 3a2f d0be ccb2 143e 92e2 003e 2a9f c53d
000002e0: 70c9 f53d 7b8b db3d 6c05 133e 832b 4ebe
000002f0: 07a1 453e 0915 403e 43a5 58bc e902 95be
00000300: 2187 33bd 8a52 cdbe 7bdd 3c3e 736e b33e
00000310: 1d3e 023e d323 b33e e2a2 cabd 4ff0 a8bd
00000320: 1147 0ebb c7bf 803d 5253 08be 1f15 2b3e
00000330: 23a0 f1bd 2caa 463e 13b1 16be d100 9fbd
00000340: 4be9 00bd b873 1e3f f593 1dbe a791 6bbe
00000350: 3f3f 093e 6be2 143e 17ad e83d eea9 613d
00000360: a9ef 1a3d 9999 1c3e add0 bdbd 0618 30bd
00000370: 8e4d e23d 5fe9 223f 60dd aa3e b57b bfbd
00000380: 6426 8fbd 43a8 963e 6f20 473d d546 da3e
00000390: 3fac 0d3e c8c3 ca3d 8830 253e f157 d33d
000003a0: 211b 683d ee5d 2b3e 9572 553e aa07 9bba
000003b0: 3361 0b3e 28d4 413e cec7 983d d5e8 82be
000003c0: 74a6 0bbb 82b2 403d ce00 cabd 35d5 aa3d
000003d0: a86c c63d dd8f 97bb 6bd1 ae3e 33aa cebe
000003e0: a26a 34be 482f 3b3e 7722 103d fc22 233d
000003f0: 5e37 e63d fc23 863e e4c5 1b3e 5b95 203e
0.1998051 0.29532918 0.002258745 -0.434796 0.31687233 -0.18438126 0.2364586 0.16903049
0.21722038 0.083136745 0.13107947 0.1693637 -0.2144159 0.13228261 0.14078972 -0.0002337735
-0.121812984 -0.21832173 -0.1255573 -0.02464555 0.05820818 0.41220245 0.21754074 0.10567499
0.08374452 0.29776677 0.2129643 -0.08196437 0.15905508 0.21434222 -0.13518034 -0.20464183
-0.20881498 0.21214506 0.03428582 0.16648105 0.05077452 0.08465344 0.08070381 0.05404003
0.098673634 -0.36567754 -0.16383532 0.26572618 -0.030144861 0.0684556 0.03415299 -0.2868555
0.27301383 -0.10788699 0.038409047 -0.0057646357 0.052082486 0.033168133 0.16597567 -0.1129594
-0.6393398 0.326932 -0.009927569 0.0855799 0.11550232 -0.16919167 0.16119967 -0.18522595
0.037517097 0.087123066 0.1683205 -0.18832473 -0.08320234 -0.023506537 0.007962583 0.049448684
-0.6977644 -0.31614476 -0.074792035 0.03508577 -0.077410266 0.04200846 0.029485587 0.09752243
-0.15649979 0.011243164 -0.18518402 0.026247237 0.0866493 -0.045369387 0.042288426 0.04947475
-0.66766953 -0.253609 0.2681528 -0.07198647 0.059634034 -0.056938887 -0.08108178 0.008935807
-0.0039277864 -0.2842759 -0.14956525 -0.03762586 0.2578826 -0.07962479 0.11011842 0.11744722
-0.56124026 0.30519664 0.18235414 0.124866985 0.06903402 0.22193553 -0.00016729312 -0.2474285
0.03598265 -0.051093295 0.33285135 0.36517677 0.09918215 0.13006596 -0.62701243 0.022390116
0.1529152 -0.052638605 0.04158303 0.08132492 -0.527844 -0.024393426 -0.019974021 0.4204692
-0.18867862 -0.23264967 0.045083806 0.10723782 0.13047616 -0.0054488415 0.021418642 -0.46306458
0.40280837 0.019126365 -0.07439781 -0.49528947 0.31973907 0.070263155 0.05903578 -0.025987772
-0.38081726 0.09549163 0.14047627 0.2099771 0.107109554 0.09921664 0.0636755 0.15436165
0.049710356 0.18895586 -0.06967017 0.28661117 0.18886079 0.4400702 0.09320435 0.07250043
-0.020908307 0.03809812 -0.020556582 -0.25105676 -0.02944742 0.16639216 -0.16254224 -0.15035489
0.107416116 -0.11770954 0.015209967 -0.118141994 -0.19006377 -0.20748954 0.17799294 0.02709417
-0.02057824 0.09288945 -0.35031357 -0.22876102 -0.4066103 0.1452133 0.1258643 0.09649499
0.12001312 0.10719963 0.14357537 -0.20133786 0.19299708 0.18758024 -0.013222995 -0.29103783
-0.04383004 -0.40102035 0.18443863 0.35045204 0.12719007 0.3498827 -0.09894349 -0.0824896
-0.002170984 0.062865786 -0.13313034 0.16707276 -0.11798122 0.19400853 -0.14715986 -0.077638276
-0.031472486 0.6189532 -0.15388472 -0.2300478 0.13403033 0.14539497 0.11361139 0.0550937
0.037826214 0.15292968 -0.09268317 -0.04299166 0.11049949 0.63637346 0.3337202 -0.09349767
-0.06989744 0.29425249 0.048614915 0.42632166 0.13835238 0.099006236 0.16131794 0.10319508
0.056666497 0.1673505 0.20844491 -0.0011827846 0.13611297 0.18928587 0.07459985 -0.25568262
-0.002130893 0.04704524 -0.09863435 0.08341447 0.09688693 -0.004625304 0.34144148 -0.40364227
-0.17618802 0.18279755 0.03518912 0.039828286 0.11241029 0.2619933 0.15212208 0.15681975

linear_relu_stack.0.bias f4 [64]
00000000: 04df 1d3c 2c72 833e d12f 24be 86fa 72bd
00000010: 8c3b 92bd 7ecd 2d3e 1a9b a1be ca6c 783c
00000020: 6ee6 46bd d22c 883e 9b4f 223f 0319 1ebe
00000030: 063c eb3e c92e d2bd 4762 21be dc3b 393e
00000040: e706 9cbc 40e1 8abd 8877 063f 986c 583f
00000050: 1619 4cbe 3e7a 223c 37e7 20bf 928e f53e
00000060: d693 7e3e b098 8fbd c98e 88be ab2f 1b3f
00000070: 28ab 803e 983b 8b3e 870d 3abf d325 8a3e
00000080: adaf 9f3e c04f 503e 4a56 f33e 3163 0abf
00000090: 2e56 4cbc 84f5 97be 58d0 5abd e016 ad3e
000000a0: f037 243d 37b8 733e bff1 15be e68e 033e
000000b0: 19d6 f73d fe89 29be b31d c13d 793d 85be
000000c0: 9dc0 ed3e 59f8 d93d 3f2b 52be 09fb 3bbe
000000d0: b3d0 d93e 24fd 043d 1333 823e 125e b0be
000000e0: a0ac ccbd 48ba c1bd 8bee 6ebb 5c2b c13e
000000f0: 7844 023e 80bb 093f bb98 e7bd 535a 293e
0.009635691 0.25673044 -0.16033866 -0.05932095 -0.07140264 0.1697292 -0.31563646 0.015162656
-0.0485596 0.26596695 0.6340272 -0.15439229 0.45944232 -0.1026283 -0.15760146 0.18089241
-0.01904626 -0.06781244 0.5252614 0.845407 -0.19931445 0.00991684 -0.62852806 0.47960335
0.24861082 -0.07011545 -0.26671436 0.6061961 0.25130582 0.27193904 -0.7267689 0.26981983
0.31188717 0.20342922 0.4752677 -0.54057604 -0.012471719 -0.296795 -0.05342135 0.33806515
0.04009241 0.23800741 -0.14643 0.1284748 0.12101383 -0.16556546 0.09429493 -0.26023462
0.46436015 0.10643072 -0.2052431 -0.18357481 0.42542037 0.032467976 0.25429592 -0.3444677
-0.09993863 -0.094593585 -0.00364581 0.37728393 0.12721431 0.5380173 -0.11308428 0.16538362

linear_relu_stack.1.weight f4 [64]
00000000: d1a6 203f f59c 483f f657 863f f47e 6c3f
00000010: 6067 553f 6044 3f3f b9af a23f 6ce0 623f
00000020: 061c 783f 26f5 493f 7ea2 153f 97c9 8a3f
00000030: b19f 523f 7358 9a3f 5ee9 903f a8c2 3f3f
00000040: b7db 4a3f 24a9 4c3f dac1 163f f351 223f
00000050: 150e 833f 703a 533f abda da3f 934e 333f
00000060: c9b6 4d3f ced2 7f3f 5120 993f e523 0a3f
00000070: 71d3 443f 99c2 443f a639 3440 987b 423f
00000080: 0756 393f 12f4 803f 9433 563f 4802 c23f
00000090: 5fe6 563f c2cf 9a3f b140 a03f 3638 313f
000000a0: 6c67 853f f974 3e3f 6039 3f3f cc1f 633f
000000b0: d6a6 773f 45c5 693f b489 733f 2c6c 953f
000000c0: 2d49 223f 16f3 4c3f 7b79 673f 4b63 8f3f
000000d0: ad2e 383f f99b 643f 6b82 563f e822 9e3f
000000e0: 65f2 5e3f 56c9 8f3f 028d 3f3f 73b6 273f
000000f0: 9f11 403f 98ad 3e3f 9215 383f 74b0 1a3f
0.6275454 0.783645 1.0495594 0.92381215 0.8336086 0.74713707 1.2709876 0.8862369
0.9691776 0.7888969 0.5845107 1.084277 0.8227492 1.2058243 1.1321218 0.74906397
0.7924151 0.7994559 0.58889544 0.63406295 1.0238672 0.82511044 1.7097982 0.7004177
0.80357033 0.9993104 1.1962987 0.5396102 0.76885134 0.7685943 2.8160186 0.7596984
0.7239689 1.0074484 0.8367245 1.5156946 0.8394527 1.2094653 1.2519742 0.69226396
1.0422187 0.74397236 0.7469692 0.88720393 0.96738946 0.91316634 0.95131993 1.1673636
0.6339291 0.8005842 0.9041974 1.1202177 0.7194622 0.89300495 0.8379275 1.2354403
0.87088615 1.1233318 0.74824536 0.6551277 0.7502689 0.74483633 0.71907914 0.60425496

linear_relu_stack.1.bias f4 [64]
00000000: cfe6 85be c0e5 c2be 9987 a2be ed4f 9ebe
00000010: 547c 7dbe 30ac b3be 68ef 86be 806d 0abf
00000020: c4fa adbe 3bde b8be 3383 27bf 7d53 56be
00000030: 81a5 c8be e805 a4be 511d bdbe 5ee6 e7be
00000040: 110d d5be e443 c5be 6a26 26bf 29ce 28bf
00000050: 7bcb ddbd 30f7 65be 1d5b 06be ac7f 26bf
00000060: 7dee d7be 4164 4dbe 996e e5be 15da 3dbf
00000070: 7df0 09bf aac2 c4be b881 b83d 2579 9bbe
00000080: 3362 a3be 4cc9 0ebf 72c6 efbe 933b b8bd
00000090: d738 fdbe a5c1 b8be dacc 49be 231d 0ebf
000000a0: aaef cdbe 4643 dbbe 45c6 b7be f5ea 67be
000000b0: b60d d7be 1f7e a1be 5372 0cbf 2282 5bbe
000000c0: b8d9 0ebf f4fb e9be 7758 78be 126a 36be
000000d0: ac8c 21bf 9e7e 1dbf f85e 02bf 0bf3 80be
000000e0: 4c40 d7be 0cf7 a8be e95a d7be 0962 d7be
000000f0: 727a 02bf d577 18bf addc bbbe 6686 e6be
-0.26152655 -0.3806591 -0.31744078 -0.30920354 -0.24754459 -0.35092306 -0.26354527 -0.54073334
-0.3398038 -0.36107048 -0.6543457 -0.20930286 -0.3918877 -0.32035756 -0.3693643 -0.45292944
-0.4161153 -0.3852836 -0.64902365 -0.65939575 -0.108298264 -0.22457576 -0.13120694 -0.6503856
-0.4217414 -0.20057775 -0.44810942 -0.7416089 -0.5388258 -0.38429767 0.09009117 -0.30365863
-0.31910858 -0.55775905 -0.4683109 -0.08995738 -0.49457428 -0.3608524 -0.19707051 -0.5551321
-0.40221912 -0.42824763 -0.35893455 -0.22648223 -0.42002648 -0.31541535 -0.54861945 -0.2143636
-0.5580096 -0.45700037 -0.24252497 -0.178139 -0.63105273 -0.6152133 -0.5092616 -0.25185427
-0.42041242 -0.33000982 -0.42061546 -0.42066982 -0.50968087 -0.5955785 -0.366918 -0.45024413

linear_relu_stack.4.weight f4 [64, 64]
00000000: cfd0 babb f70c 0b3e bd16 d0be e31a eebc
00000010: 3741 013e 3f26 953d 4a9e c5be 815b 353e
00000020: 6df7 583e a115 16be e15c 613d 41da 3d3e
00000030: 4dae bb3d 4fa8 333d 926d d8bd b98b 183e
00000040: 767b c4bd 7391 08bf 22b8 2bbe 2d8b a93d
00000050: 04d2 9f3e b80b 3f3e 15dd 16bf 710f c23d
00000060: 0553 f2bd 21bc c2bd b7ef 20bd aa58 edbc
00000070: 8031 553e d37a be3d a9b6 64bf 5333 3dbc
00000080: a1a3 54bd a8d7 ecbb 68f1 9c3d 52cd cd3b
00000090: a639 75be b23f 8f3d dc3f 443e 01f4 66be
000000a0: fb44 c03e e3a8 8d3d 5759 ae3d f01e 583d
000000b0: 13ac 043d 28af 773d 30bb 32be cbd6 9c3e
000000c0: a752 1bbf 964d 85bd ea72 813d 1b92 073e
000000d0: cf71 cf3c 8e60 273d 0f36 ce3d 265b d93d
000000e0: cc4a 403e f071 33bf 1a63 62be 7d1e 01be
000000f0: a690 0f3e d573 233e d4c6 41bf 1f7d bebe
00000100: 7e78 153e 1577 a13d 13eb 1c3e fd66 b43d
00000110: 091d af3d 4337 e13d 9fd0 c7bc ce7e 573e
00000120: c3de 173d e0e1 613d d85b f9bd 0189 2e3d
00000130: e655 8ebd 97a1 553c 2eb6 acbd da91 013d
00000140: 2c64 b13d ebe4 fc3d 57cc debd c5cd 0ebf
00000150: b801 6b3e e6db 5f3d 8dc6 9bbf 544f 083e
00000160: d2c5 4c3e cadf ab3c 8dd1 693e 0fbe 65bb
00000170: 1a4a d5bd fcc5 e63d a21b fabf 0055 94bd
00000180: 11e0 ba3d 3347 13bd 8573 893c d21c 883d
00000190: 11ab 94bd 72da a8be 766b 273e 8887 02be
000001a0: 7b0f 703e 0974 b53c 71e0 693e 2dc7 1abd
000001b0: e2ec b63d f6b6 0a3e f308 b7be 103f 8c3e
000001c0: b9b1 093d 387e 993d c5de 7b3d 89e5 963b
000001d0: a56f 79be c4d3 47be 5be2 72bd f1a8 e43d
000001e0: b9de 94be 6c70 6f3e 0cef 1c3e c404 15bd
000001f0: 1bfc ae3a 0bcb b0bd 62c3 093e 6143 7b3d
00000200: 7853 863e b02b 473e be98 4d3e 9e14 923d
00000210: efd4 c13c 8659 b13c c185 3d3e bc1d 18bd
00000220: ef4f 84bd 305c 6abd 106f 893c 4213 84be
00000230: 6ed4 403e ed3d 99be 9254 813e 6338 b53d
00000240: 8ca9 2d3e f25b 8c3d df79 bb3e 966f 293e
00000250: d6b4 9abc fd51 db3d 07a6 cebe 6fff b53e
00000260: b3a1 473e 7533 27bb b25c 1d3d 1d58 e63e
00000270: be1e 853e bde0 3e3e 8406 10bf 0d94 b73e
00000280: d4dd c83e c050 243e 46d6 933e a78f cebe
00000290: 7f14 8d3e f9f3 003e 8231 813e 78b8 453e
000002a0: d850 e23d 0cac ee3e 6e7b bc3c 0c60 953e
000002b0: 4789 ea3e 4baa 353e 4c67 f63d d27c f93d
000002c0: 2f23 693e 120a 84be d134 b53e cc19 67bc
000002d0: 2cba c53e 3553 5bbd 1183 eb3d 709e 2fbe
000002e0: 5251 82bd df13 563e 11ca f33d ce74 62bd
000002f0: 7b68 51be 5644 3bbe c141 163e 2bff 76bc
00000300: 99a1 9d3b c2a1 9b3d f68b 2dbd 0f9b 773d
00000310: cb7c 9c3e b03c 11bd cd54 723e 160b b53d
00000320: 8c68 6ebf 4e1b 003e af59 12be fe2c d13c
00000330: 1461 e33d 797e ec3e f957 c43d 1a0d 073e
00000340: 2fb1 3f3d e4ff 633d 3066 8d3d 0c1a b5bd
00000350: cf97 2b3e a408 c9bd e67d bebd e716 393e
00000360: f86c 48bf fa2a 90be 0d6a 6ebe a650 713c
00000370: 30a4 1fbe 8ebd 08be 11dc f8be ea3a 173d
00000380: 0b20 903c 9c9a acbe a5e2 113e 3a1a 833e
00000390: 0c0f 64be e4ed d23c fd45 143e 626a 9f3d
000003a0: 9100 b1bc 7542 1a3d c846 8abe 5550 0c3e
000003b0: 08fd 0d3e 47ca 16bb c380 f4be 305b bc3d
000003c0: 49cf b63d c0a6 7e3e 45c3 9dbe b0b0 81be
000003d0: 9907 9f3c 1e84 29bd 1140 c3bd a05a 4bbe
000003e0: 36de 5cbe 0a94 233d c216 98be 1063 d03d
000003f0: 062d 89bc c773 6e3d 6ed8 2b3a de1b ecbd
-0.0057011615 0.13579164 -0.40642348 -0.029065555 0.12622534 0.072826855 -0.38597327 0.17710687
0.21188135 -0.14656688 0.055020217 0.18540289 0.091641046 0.043861683 -0.10567774 0.1489705
-0.09593861 -0.5334694 -0.1676946 0.08278499 0.31214917 0.18656814 -0.58931094 0.094756015
-0.11832241 -0.09508539 -0.03929111 -0.028972942 0.20819664 0.093007706 -0.8934122 -0.011547881
-0.05191386 -0.0072278567 0.07663232 0.0062805796 -0.23947772 0.06994571 0.19164985 -0.22554018
0.37552628 0.06916978 0.08513134 0.05276388 0.032390665 0.060469776 -0.17454219 0.30632624
-0.6067299 -0.06508939 0.06320746 0.13239329 0.025322823 0.040863566 0.100689046 0.10613088
0.18778533 -0.7009573 -0.22108117 -0.12609287 0.14020023 0.15962155 -0.7569401 -0.37204835
0.14596745 0.07884041 0.15324049 0.08808706 0.0855046 0.109968685 -0.02439147 0.21044466
0.037077677 0.05514705 -0.12175721 0.042611126 -0.069499776 0.013039014 -0.084331855 0.031633236
0.086616844 0.1234835 -0.108788185 -0.5578273 0.22949874 0.05465307 -1.2169968 0.13311511
0.19997337 0.020980734 0.22833844 -0.003505591 -0.104145244 0.11268231 -1.9539683 -0.07242775
0.091247685 -0.035956573 0.016778717 0.06646122 -0.07259191 -0.3297916 0.16349587 -0.12747014
0.23443405 0.022150056 0.22839524 -0.037787605 0.089319006 0.13546357 -0.35749015 0.27391863
0.033616755 0.074947774 0.061491746 0.0046049994 -0.24358995 -0.19514376 -0.0592979 0.111650355
-0.29076174 0.2338273 0.15325564 -0.036381498 0.001335028 -0.086324774 0.13453439 0.061343554
0.26235557 0.19450259 0.20077798 0.07132839 0.023661105 0.021649133 0.18508054 -0.037137732
-0.064605586 -0.057216823 0.016776592 -0.25795943 0.18831035 -0.29930058 0.25259835 0.088486455
0.16959208 0.06853475 0.36616418 0.16546473 -0.018885057 0.107089974 -0.40361044 0.35546443
0.19495277 -0.0025512849 0.03841848 0.449891 0.26000017 0.18640418 -0.5625994 0.3585514
0.3923174 0.16046429 0.28874415 -0.40343973 0.275547 0.12593068 0.25233084 0.1930865
0.11050576 0.46615636 0.023008075 0.2917484 0.4580786 0.17740743 0.12031421 0.12182011
0.22767328 -0.25788933 0.35391858 -0.014105272 0.386186 -0.05354615 0.11499608 -0.17150283
-0.06363167 0.20906018 0.119037755 -0.055287175 -0.20450012 -0.18287787 0.1467352 -0.015075485
0.0048105237 0.07599212 -0.042369805 0.06045061 0.3056396 -0.035458267 0.23665161 0.08840005
-0.93128276 0.12510416 -0.14292024 0.02553415 0.111025006 0.4619024 0.09587092 0.13188592
0.046799835 0.05566396 0.06904256 -0.08842859 0.16757129 -0.09816101 -0.09301357 0.18075143
-0.78291273 -0.2815779 -0.23282643 0.014728701 -0.15589976 -0.1335356 -0.48605397 0.03692142
0.017593404 -0.33711708 0.14246614 0.25605947 -0.22271365 0.0257482 0.14479823 0.07783963
-0.021606715 0.037661035 -0.27007127 0.13702519 0.13866055 -0.002300875 -0.47754487 0.0919708
0.08926255 0.24868298 -0.3081304 -0.25330114 0.019412803 -0.041385762 -0.09533704 -0.1985879
-0.21569142 0.039936103 -0.29704863 0.10175145 -0.016745102 0.058215883 0.0006555383 -0.11528753

linear_relu_stack.4.bias f4 [64]
00000000: 6d1f 2dbd 0215 9c3d 4246 653e 6f7c 7bbd
00000010: 8d48 d6bc f1f0 5f3d 1653 a33e 1a1c 0fbc
00000020: 04c4 993e 82aa 0c3d 68a2 8f3e cfb5 8ebc
00000030: e8a5 c33b ed99 b0bc 13ca 163e bd56 8abd
00000040: 257b 62bd 8424 98bd 3fcd 8e3d 3d8d b83d
00000050: 62cc 0bbe 65f1 3d3e 3c9c a13d 792b 723d
00000060: 87bc 24bd 7bfc 233e 3b07 0abd 2716 dd3d
00000070: 4bb4 293e 08ac 573e 0b36 21be 8469 de3d
00000080: 3551 1cbe 053e d93d ae55 f6bc d03c 7e3d
00000090: 2f00 1f3d a8d9 65bd 55b1 bbbc 45d2 f6bd
000000a0: c5bc 7a3d 75cf 0b3d bafd a1bd 97e2 f93c
000000b0: af66 8abd 6e10 92bd 4ad4 b43d 396b cb3c
000000c0: 94b0 7fbb 6a9e 9f3c ee71 0e3e 21a8 353d
000000d0: 28cb 06bb 3c10 62bd 2e58 68bd f0fd e1bb
000000e0: e65f 57bd 2f58 25be 607c 6e3d de5e 98bc
000000f0: f6d5 ffbb 0027 67bd 3369 993c 7d92 a9bd
-0.042266298 0.076211944 0.22390082 -0.061397966 -0.026157642 0.05467314 0.31899327 -0.008734727
0.3003236 0.034342296 0.28053594 -0.017420677 0.0059707053 -0.021557773 0.14725523 -0.06754825
-0.05529322 -0.0742884 0.06972741 0.09011314 -0.13652185 0.18549116 0.078911275 0.05912349
-0.040218856 0.16014282 -0.0336983 0.10795241 0.16572683 0.21061718 -0.15743272 0.10859969
-0.15265353 0.106075324 -0.030070152 0.062069714 0.038818534 -0.056115776 -0.022911707 -0.120518245
0.06121518 0.034133393 -0.079097226 0.030503554 -0.067578666 -0.0713204 0.088295534 0.024831401
-0.003901516 0.019484717 0.13910648 0.044349793 -0.0020567868 -0.055191264 -0.05672472 -0.006896727
-0.05258169 -0.1614692 0.058224082 -0.018599924 -0.0078074886 -0.056433678 0.01872692 -0.082798935

linear_relu_stack.5.weight f4 [64]
00000000: 8e44 873f 5bc4 653f 450f f63e 1981 883f
00000010: f8ea 773f f518 653f 3e34 d53e d8a3 763f
00000020: 9fd2 dc3e aa9f 4d3f 7c27 093f 9aa4 653f
00000030: 3ee9 363f fda2 803f 892b 263f fa7e 8c3f
00000040: 37f8 603f 0b49 953f bfc2 643f 4477 653f
00000050: a6ca c33f b34e 313f 2874 893f 7d8a 8c3f
00000060: bce0 823f ab47 6a3f dabd 773f 6d26 543f
00000070: 1cab 443f 0b79 383f a376 913f 9675 4f3f
00000080: 5bb9 9d3f 24fa 313f 0661 8e3f 6b10 8e3f
00000090: b479 603f 42cc 893f 6d0e 993f 5486 893f
000000a0: 3838 7a3f a72b 4c3f 5c09 853f 06e6 563f
000000b0: d7fd 883f f037 703f 7888 663f 9f39 7b3f
000000c0: c311 843f 3263 6c3f 7c22 3d3f c4f4 723f
000000d0: 3a0b 903f 541d 693f f827 723f aa46 943f
000000e0: 5b61 703f 32bb 973f 3745 6c3f a61b 823f
000000f0: 275d 253f 1197 9e3f b10e 8d3f b080 853f
1.0567796 0.8975274 0.48058525 1.0664397 0.9684291 0.89491206 0.4164142 0.96343756
0.4312944 0.80321753 0.53575873 0.8970429 0.7144965 1.004974 0.6491018 1.097625
0.87878746 1.1662916 0.8935966 0.8963511 1.5296218 0.6926071 1.0738573 1.0979763
1.0224833 0.91515607 0.96774065 0.82871133 0.7682359 0.72059697 1.136433 0.81038797
1.2322191 0.6952231 1.1123359 1.109876 0.87685704 1.076546 1.1957527 1.0744119
0.97742033 0.7975411 1.0393481 0.8394474 1.0702466 0.93835354 0.90051985 0.981348
1.031792 0.9233886 0.73880744 0.9490473 1.1253426 0.91060376 0.9459224 1.1584065
0.9389855 1.1854002 0.92293113 1.0164688 0.64595264 1.2389852 1.1020108 1.0429897

linear_relu_stack.5.bias f4 [64]
00000000: 6332 8cbe 096b dbbe f111 24bf 7f75 3dbe
00000010: 74b9 90be bd1b b1be 1b48 2bbf 487d b5be
00000020: b390 25bf 3749 f0be 9364 2ebf fa99 c7be
00000030: f70c 00bf 91f5 8cbe a5dc 2fbf e70a 81be
00000040: a9f4 b4be 8ef2 00bf 5fe7 b9be dcff e4be
00000050: c772 1bbe acb2 22bf 3894 98be e9d5 abbe
00000060: 5679 b0be 8cc2 d4be c75f acbe 31a9 c4be
00000070: 279b cdbe e750 0bbf 892b 88be c64b dabe
00000080: 630a 29be d7ef 14bf 3762 aabe f9a1 b4be
00000090: 2dce 13bf bde9 adbe 45ec 80be 5a22 a9be
000000a0: 9b02 c0be 2a45 e8be c540 8cbe 5d89 aebe
000000b0: 998f debe b63d f6be 88c7 e2be dc7d 95be
000000c0: 381e a2be ad58 e0be 4631 e9be ec4d d2be
000000d0: 0139 acbe e35c 9dbe e01a 98be d2cd a3be
000000e0: aba9 7ebe 452a b2be 2b05 ccbe dd9d c9be
000000f0: d685 efbe 67c3 9fbe 87cf 89be c9d4 acbe
-0.27382192 -0.428551 -0.64089876 -0.18501852 -0.2826649 -0.34591475 -0.669069 -0.35447145
-0.6467392 -0.46930858 -0.68122214 -0.38984662 -0.5001978 -0.27531102 -0.6869605 -0.2520363
-0.3534291 -0.5037011 -0.36309335 -0.44726455 -0.15180503 -0.6355388 -0.29800582 -0.33561638
-0.34467572 -0.41554677 -0.33666822 -0.38410333 -0.40157434 -0.5442032 -0.26595715 -0.42635936
-0.16507868 -0.58178467 -0.33278057 -0.35279825 -0.57736474 -0.3396739 -0.2518026 -0.3303402
-0.37501988 -0.45365268 -0.27393165 -0.34089175 -0.4346893 -0.48093957 -0.44292855 -0.29197586
-0.3166368 -0.43817654 -0.45545405 -0.41075075 -0.3363724 -0.3073493 -0.29708004 -0.31992966
-0.2486941 -0.34797874 -0.39847693 -0.39378253 -0.46781796 -0.31203768 -0.26916143 -0.33756092

linear_relu_stack.8.weight f4 [32, 64]
00000000: 9cbc 993d 74d5 df3e 8a77 153d 1c4c a63d
00000010: 8dd9 19be 7d09 9c3d 81a1 aabd 2e43 cc3d
00000020: a091 d4bd 2e9c d4bd b0df 74be 1ee0 b9bd
00000030: 761a 99bd 05a7 d3bd 5036 3abe 6db0 f63d
00000040: 50eb 573e 3083 153e 205f d2bd c46a 20be
00000050: cbb1 0d3e 1929 86be 4c43 78be 6247 8b3c
00000060: 7749 653e 387a 93be 7730 67be ff74 8fbe
00000070: ebff adbe 46ba 343d c921 1f3e 81c9 0bbf
00000080: 5dea 04bd 66e8 9d3d 2003 4fbe a908 423d
00000090: 37db 87be f845 11bd 8518 193d 133c c23e
000000a0: e195 b23d 3135 0d3e e8cb cd3d 57e6 e4be
000000b0: 585e 113e 335b 383c 5c16 5fbe c70c a1be
000000c0: 9f66 cabc 9553 93bd 44bc fc3d aa6d a73c
000000d0: 1136 a23d 8e4d 053d 2e66 00be 784c 4c3e
000000e0: 85a2 693d c96f e03e 1258 6f3d d946 083d
000000f0: c014 853d bdb8 29bd 4484 b4bd 6b92 253d
00000100: c989 193e 7202 80bd 70b5 aa3c 6cd6 c53d
00000110: 5b7e f5bc 22a8 febd 8051 e3bd b4cb 053e
00000120: 66ab 59bd 0ab9 413d 3927 dfba 3a98 7d3e
00000130: 7bfe fdbd d5ff ae3d d195 32be 1dad 39bd
00000140: 0d0c 1fbe f5fa 4a3e a461 613d 6559 103e
00000150: 639e 17be 5323 463e 0121 25bd 63f0 2c3e
00000160: 6324 aebc a3c1 413e 053d 3f3e d851 26be
00000170: 090d 11bd c0ca 513e c64b b3be f7af c3bd
00000180: c3bd 563e f25a 15be 824a b9bd ae2c 7f3e
00000190: e60a b53d 871c 063d ca4a 8c3c 796d 983e
000001a0: 5f0f 70be 1894 b83d ac1b 623e 7585 653e
000001b0: 5935 b43d 5954 3e3e 4d4c d7bd a08c c13c
000001c0: 00ac f5bc 9b40 713e ba4a 923d 9e41 d9be
000001d0: 3e16 dbbe 8c1d dfbe 754d c3bb 9539 1dbe
000001e0: cdcb b2bc 4c3a 3ebe c869 833d 3192 d03b
000001f0: 906f 52bd 3aef a53e 4a12 9a3e 158d 713d
00000200: 7cf4 e6bb 6932 d3bc 8c6c 333e f040 8b3e
00000210: ab66 223e c158 5ebe c11b 933d 9cee 88bd
00000220: 4802 b03d ae90 3f3d 4441 c6bc 346e 433d
00000230: 87de 20bd 70fb e53d 23c5 fd3c e19e b8bc
00000240: fa88 823e 72a1 b6be b194 5bbd 8f98 033e
00000250: ba1f 4d3e e051 4abd 928b 103e 43fc 0fbe
00000260: e46e bf3e cabb d73d 3b36 b6bd bd35 d83d
00000270: 71ec 153e c75d a93d 00e6 b13d 3405 1f3d
00000280: fb2f 8b3d e874 cebd 58d9 3bbd 1899 00bf
00000290: 9320 04bf b817 d7be 9708 0b3e 1953 d4ba
000002a0: c899 923d cf47 d1be 7d70 5a3d d050 023e
000002b0: d606 12be 0e13 c0be 1f6c abbe f18c 923e
000002c0: f8d3 083e 7fc3 c9be 47fd 18be 4ffd 463e
000002d0: 4a83 803e b608 6a3d 9528 ac3c 4b90 b1bd
000002e0: 0341 dcbc 991e 153e 1524 92be 2418 4abf
000002f0: b68c c2be b55d 91be 195e 65bc 246e 833d
00000300: 6fca 313b 3a47 803d 4df1 67be 01c6 ab3d
00000310: 76da 463d 9b96 683d d2e3 3bbd e496 cebe
00000320: f4e2 3f3e c9a0 61bd e361 05bc a151 24be
00000330: 3b90 243e 858c 7c3d c2c1 50bc be51 163e
00000340: 0fda a03d 7c55 c6bd c626 48bc 7d51 543d
00000350: 05de 203e a42f e53d d545 2b3e df8e 04be
00000360: 47b4 d9bd f862 373e 0b42 de3c 09f1 a93c
00000370: 7493 3a3e 1c09 45be 6218 7ebe f748 fd3c
00000380: ea34 283e b1c8 5d3d f2ad 84be 7820 febd
00000390: 4290 943e 5c9a a1be 1a55 843e 55e7 a3be
000003a0: 65ad 57bd afd7 9bbe f2ab abbd 5c98 093e
000003b0: 086c 99be 825c 813e b60a 163e 6d89 c43d
000003c0: 5037 87bd 2994 913c 7c35 e0bb ccb8 723e
000003d0: 3ab6 e23d 4eae 073e c573 a03d 55d8 4d3e
000003e0: d03f c3bd c1b1 a53e 0b36 afbe ff15 1fbd
000003f0: c4ba 693d 7eb1 2ebe daba 1ebe 3e35 3dbe
0.075066775 0.4371754 0.036490954 0.081199855 -0.15024395 0.07618997 -0.08331586 0.09973751
-0.10379338 -0.103813514 -0.23913455 -0.0907595 -0.0747575 -0.10334591 -0.18184781 0.12045369
0.21085858 0.14600825 -0.1027205 -0.15665728 0.13837354 -0.2620323 -0.24244422 0.017001811
0.22391306 -0.28804183 -0.22577082 -0.28018948 -0.33984312 0.044122957 0.15540232 -0.54604346
-0.03245007 0.07710342 -0.20216036 0.04737154 -0.26534435 -0.035467118 0.0373769 0.37936458
0.087199934 0.13789822 0.10048658 -0.44706985 0.14196146 0.011252212 -0.21785873 -0.3145506
-0.024707137 -0.071936764 0.12340596 0.020438034 0.079204686 0.032544665 -0.12538978 0.19951046
0.057039756 0.43835285 0.0584336 0.03327069 0.064980984 -0.041435946 -0.0881429 0.04042284
0.14993967 -0.062504664 0.02083847 0.09660038 -0.029967478 -0.124344125 -0.11099529 0.13065988
-0.053141974 0.047295608 -0.0017025239 0.24765101 -0.12402054 0.0854489 -0.17439963 -0.04533111
-0.15531941 0.19822295 0.055024758 0.14096601 -0.14806513 0.19349413 -0.040314678 0.16888575
-0.021257585 0.18921523 0.18675621 -0.16242158 -0.035412822 0.20487499 -0.35018748 -0.09555047
0.20970826 -0.14585474 -0.09047414 0.24919388 0.08839969 0.03274205 0.017125506 0.2977102
-0.23443364 0.09012622 0.22080868 0.22414191 0.08799238 0.18586864 -0.105126 0.023626626
-0.029989243 0.23559801 0.07143159 -0.42432874 -0.42790407 -0.4357723 -0.0059601613 -0.15353997
-0.021825695 -0.18576926 0.064166605 0.0063650836 -0.051375926 0.32409078 0.30092078 0.058972437
-0.007048188 -0.025780873 0.17521876 0.2719798 0.15859477 -0.21713544 0.07183028 -0.06686136
0.08594185 0.046768837 -0.024201043 0.04771252 -0.03927472 0.112295985 0.030977791 -0.022536697
0.2549513 -0.35670048 -0.0536086 0.12851165 0.20031634 -0.04939449 0.14115742 -0.14061074
0.3738929 0.10533865 -0.088970624 0.10557125 0.14640976 0.0826984 0.08686447 0.03882332
0.06796261 -0.10080892 -0.045861572 -0.502336 -0.51612204 -0.42010283 0.13577496 -0.0016199081
0.07158238 -0.40875098 0.053329933 0.1272614 -0.1426042 -0.37514538 -0.33480927 0.28623155
0.1336211 -0.39406964 -0.14940368 0.19432567 0.25100166 0.057137214 0.021015445 -0.086701
-0.026886469 0.14562453 -0.28543153 -0.78943086 -0.3799798 -0.28391805 -0.013999485 0.06417492
0.0027128716 0.062635854 -0.22650643 0.083873756 0.048548184 0.056784254 -0.045871563 -0.40349495
0.1873892 -0.055084977 -0.008141014 -0.16046764 0.16070645 0.061657447 -0.012741508 0.1467962
0.078540914 -0.096842736 -0.012216276 0.051835526 0.15709694 0.11190727 0.16725858 -0.12945126
-0.10630088 0.17908847 0.027131101 0.020744817 0.18220311 -0.19241756 -0.24813989 0.030918581
0.16426435 0.054146472 -0.2591396 -0.12408537 0.2901631 -0.3156308 0.25846177 -0.3201243
-0.052655596 -0.3043799 -0.08382405 0.13437027 -0.29965234 0.2526589 0.14652523 0.095965244
-0.06602347 0.017770844 -0.0068423133 0.23703307 0.11069913 0.13250086 0.07834581 0.20102055
-0.09533656 0.32362178 -0.3422092 -0.038839336 0.05706288 -0.17059895 -0.15500966 -0.18477342

linear_relu_stack.8.bias f4 [32]
00000000: ac08 e1bd 002a 3d3d 9462 40bd 38d8 083e
00000010: da88 213e 3f76 0d3e 240f b7bc f194 a4bd
00000020: 3a4e 823d d745 b73d e676 843d 1c0a 3abc
00000030: d614 ea3c 6c5a 24be a769 0fbe 83e7 1e3e
00000040: f548 3d3c fd09 063e 25fe 053e 9a6b a73c
00000050: fa24 643d 0358 e93d 816c 3fbc 6351 a5bd
00000060: 06c1 10bd 20f6 133d 5ecc 30bd c903 17bd
00000070: 48c6 87bd f475 f6bc 94fb e13d d8d7 1c3e
-0.10987982 0.046182632 -0.04696901 0.13363731 0.15774861 0.13814639 -0.022346087 -0.08036221
0.06362577 0.08948868 0.064679906 -0.011354949 0.028574388 -0.16050118 -0.14005147 0.15518002
0.011553039 0.13089748 0.1308523 0.02043705 0.055699326 0.1139374 -0.011683584 -0.08072164
-0.03534033 0.036123395 -0.04316365 -0.036868844 -0.06629616 -0.030085541 0.11034313 0.15316713

linear_relu_stack.9.weight f4 [32]
00000000: 53e6 b83f 34ab 9c3f 6599 bf3f 88d4 a63f
00000010: f829 a93f 9c8b 7c3f b54b cf3f d40b a73f
00000020: 64be 933f 9689 5e3f e78d 6b3f 557d b73f
00000030: 31ea 8e3f 6977 cc3f 968b b93f 17d3 ab3f
00000040: db53 d03f c705 a93f c404 543f b1ae a13f
00000050: 1f8f 8c3f bd01 cd3f 4b80 d33f 25a0 ac3f
00000060: acba c43f 96b4 ad3f 2904 b83f 7585 c63f
00000070: bcda c23f 9de8 be3f c9ff 873f 0988 4f3f
1.4445289 1.2239747 1.4968687 1.3033609 1.3215933 0.98650527 1.6194979 1.3050485
1.1542478 0.8692869 0.920134 1.4335123 1.116522 1.5973941 1.4495723 1.3423795
1.6275591 1.3204888 0.8281977 1.2631437 1.0981177 1.6016155 1.6523527 1.3486372
1.5369468 1.3570735 1.437627 1.5509478 1.5223002 1.4914738 1.0624934 0.8106695

linear_relu_stack.9.bias f4 [32]
00000000: bc92 7dbd e1ff 5b3b 709e 9e3d 33a3 163e
00000010: 446c 183e 8573 90be 91d8 393e ab74 fabd
00000020: 7dc8 a43d 84f5 d5be c32f dfbe effe 1c3e
00000030: a8d5 ee3d e1a2 62bd 5f68 4dbd 7adc c73d
00000040: 4502 353c aa43 3b3d a56e dbbe 7ca7 d83d
00000050: 140a b6be 17c4 d63d e1ea 2c3e 5a88 d0bd
00000060: 9ee6 aebd 4157 2a3d 6bc7 7ebd 3000 cc3d
00000070: c677 683c 2e00 ef3c 9048 263e 618b 8fbe
-0.061907515 0.0033569264 0.07745063 0.14710693 0.1488505 -0.28213134 0.1814902 -0.12229284
0.080460526 -0.41788876 -0.43591127 0.15331624 0.116618454 -0.055331115 -0.050148364 0.097588494
0.011047904 0.045718826 -0.42857853 0.1057882 -0.35554564 0.1048662 0.16886474 -0.10182257
-0.085400805 0.041587118 -0.0622019 0.09960973 0.014188712 0.02917489 0.16238618 -0.28036025

linear_relu_stack.11.weight f4 [4, 32]
00000000: 6ad6 76be 29f6 a9be a0d4 0a3e 6862 263d
00000010: 5906 65bd 87c0 63be 7e9c 373e 4e9e 923e
00000020: f290 d93d 7a8c f93c d80f e43e 368e fe3d
00000030: f41a f3bd ce39 2abf bbc5 0fbf c380 d8bd
00000040: a262 b2bd 6a89 e43c 5d97 2d3e 62e2 72be
00000050: b0fb 2dbe cbc8 9ebe 2383 213f 57ff 9f3e
00000060: b541 44bf 10fb 29be 88f4 b63e 3000 9c3e
00000070: 0266 c0be 96da 00bf 5e0e a3be 7fb6 88bd
00000080: 1f04 143c 1671 663b d7b1 10bc fd53 b3be
00000090: 159c 32bf ebf7 a93e 94cc 30bf 09e4 6d3e
000000a0: 2c2b 6dbd dbb5 443d 7c80 3b3e db12 ebbe
000000b0: 4321 a0be b98a 5a3e a758 b33d f28c 3abf
000000c0: 3222 85be 513f 1cbf b121 f2be 04fe 2dbd
000000d0: 1103 cb3e 1224 84bd b2da 4bbf 768b 573e
000000e0: f56a c53e bc37 d3bd dbdb f6bd 7a7e 54bf
000000f0: 8795 bc3d 6d80 123e b9bf 6fbe 60bf f9bd
00000100: 94fc 0a3f e141 3bbe e391 41bf 454b 01bf
00000110: cfc7 59be b86b 22be ec54 edbc 3906 e93e
00000120: fd4b e6be 63f9 733e 0a48 5abe 6954 523e
00000130: 0ac0 423e 1188 b53d 37c0 263f 0948 d5bc
00000140: c0b8 39bf 152a ea3d e999 203d 5e2c 0abf
00000150: 95c5 9dbe 2340 80bf d11e c8bd 7f3d 4b3e
00000160: 7b5b b53d 73ad 893e 058f bbbe e753 eebd
00000170: b26c aa3e bf1a 6ebe 56ce 4cbd 6cc1 bf3e
00000180: d955 12bf 0acd 89be 51b6 da3e 3f65 8b3e
00000190: d13d 8cbe 9fd2 813d 29bb 0bbf b540 bb3d
000001a0: 7894 c1bd 5419 a63e 68f2 033e d4da 0ebf
000001b0: 6e6f 9dbe 4d3a f5be 97fb 343e 8096 ff3c
000001c0: 691c 4bbe d5e0 67be 5d8f 273d 5448 a8bc
000001d0: 07da 37be 5eec c23e 5a32 663d 63cc fabe
000001e0: b0a3 97bd 0d99 1fbf 7e20 fa3e b575 d93d
000001f0: 9a3e 3fbf fa8f e73e d647 cf3c 983c b0bc
-0.2410523 -0.33195618 0.13557673 0.04062119 -0.055914257 -0.22241412 0.17930791 0.28636402
0.10623349 0.030462492 0.44543338 0.12429468 -0.11870375 -0.6649445 -0.5616109 -0.10571434
-0.08710219 0.027897555 0.16952272 -0.2371917 -0.16990542 -0.31012568 0.63090724 0.31249496
-0.7666276 -0.16599679 0.35733438 0.30468893 -0.37577826 -0.50333536 -0.318469 -0.06675433
0.009034186 0.003516262 -0.008831463 -0.35025015 -0.6976941 0.3319696 -0.6906216 0.2323152
-0.0579025 0.048024993 0.18310732 -0.45912823 -0.31275377 0.21341981 0.087571435 -0.72871315
-0.2600265 -0.61034113 -0.4729133 -0.042478576 0.39650777 -0.06452192 -0.7963058 0.21049294
0.38558164 -0.10313365 -0.12053653 -0.8300549 0.092082076 0.14306803 -0.2341298 -0.12194705
0.54291654 -0.1828685 -0.7561323 -0.5050548 -0.21267627 -0.15861404 -0.028971158 0.4551256
-0.4497985 0.23825602 -0.21316543 0.20540012 0.1901857 0.08863843 0.65137047 -0.026035326
-0.7254753 0.11433808 0.03920928 -0.5397395 -0.30814806 -1.0019573 -0.09771503 0.19847678
0.08855339 0.26890144 -0.36632553 -0.11637097 0.33286053 -0.2325239 -0.050001465 0.37452257
-0.57162243 -0.26914245 0.4271722 0.27225682 -0.27390912 0.06339001 -0.5458246 0.09143201
-0.09452146 0.324412 0.1288544 -0.55802655 -0.30749077 -0.47896042 0.17674099 0.031199694
-0.19835056 -0.2264436 0.040908206 -0.020542301 -0.17954265 0.3807096 0.056200363 -0.4898406
-0.07404268 -0.6234291 0.48852915 0.10618154 -0.747049 0.45227033 0.025302809 -0.021513268

linear_relu_stack.11.bias f4 [4]
00000000: e3b2 c43c e254 a7bd 4e26 0cbe c64a 22be
0.024011081 -0.08170487 -0.13686487 -0.15848836
